src/lib/libtf/models/trained.tflite (tflite, 57040 bytes, 21 tensors)

model_1/Conv1/Conv2D i1 [16, 3, 3, 3]
0	0x00	0
1	0x00	0
2	0x00	0
3	0x00	0
4	0x00	0
5	0x00	0
6	0x00	0
7	0x00	0
8	0x00	0
9	0x00	0
10	0x00	0
11	0x00	0
12	0x00	0
13	0x00	0
14	0x00	0
15	0x00	0
16	0x00	0
17	0x00	0
18	0x00	0
19	0x00	0
20	0x00	0
21	0x00	0
22	0x00	0
23	0x00	0
24	0x00	0
25	0x00	0
26	0x00	0
27	0x27	39
28	0xf7	-9
29	0x19	25
30	0xf7	-9
31	0xe9	-23
32	0x0b	11
33	0x81	-127
34	0x8b	-117
35	0xbb	-69
36	0xfe	-2
37	0xf7	-9
38	0xfc	-4
39	0xe9	-23
40	0x01	1
41	0xfa	-6
42	0xfb	-5
43	0xde	-34
44	0x02	2
45	0xfa	-6
46	0x0d	13
47	0xfc	-4
48	0xfa	-6
49	0x05	5
50	0xfb	-5
51	0x22	34
52	0xea	-22
53	0x09	9
54	0x1e	30
55	0x01	1
56	0xfa	-6
57	0x48	72
58	0x73	115
59	0x01	1
60	0x2a	42
61	0xe0	-32
62	0x08	8
63	0x0c	12
64	0x15	21
65	0x00	0
66	0x41	65
67	0x7f	127
68	0xe7	-25
69	0x17	23
70	0x01	1
71	0xfc	-4
72	0x31	49
73	0xc8	-56
74	0x15	21
75	0x48	72
76	0xdc	-36
77	0xee	-18
78	0x24	36
79	0xd1	-47
80	0x11	17
81	0x03	3
82	0x21	33
83	0x07	7
84	0x1d	29
85	0x5e	94
86	0x1a	26
87	0xfe	-2
88	0x00	0
89	0xfe	-2
90	0x12	18
91	0x24	36
92	0x0a	10
93	0x43	67
94	0x7f	127
95	0x1f	31
96	0xf0	-16
97	0xe7	-25
98	0x05	5
99	0x06	6
100	0x05	5
101	0x08	8
102	0x1b	27
103	0x1a	26
104	0x0c	12
105	0xfd	-3
106	0xf6	-10
107	0x03	3
108	0x21	33
109	0x47	71
110	0xf9	-7
111	0x09	9
112	0x52	82
113	0xf9	-7
114	0xef	-17
115	0x09	9
116	0x02	2
117	0x2a	42
118	0x61	97
119	0x39	57
120	0x21	33
121	0x7f	127
122	0x26	38
123	0x25	37
124	0x39	57
125	0xf6	-10
126	0x35	53
127	0x5a	90
128	0x27	39
129	0x2f	47
130	0x7e	126
131	0x11	17
132	0xef	-17
133	0x1c	28
134	0x19	25
135	0x05	5
136	0xff	-1
137	0x89	-119
138	0xfa	-6
139	0x00	0
140	0x98	-104
141	0xf8	-8
142	0x1c	28
143	0xe3	-29
144	0x01	1
145	0xd2	-46
146	0x81	-127
147	0xfb	-5
148	0xd0	-48
149	0x8e	-114
150	0xfc	-4
151	0x0b	11
152	0xe6	-26
153	0xf9	-7
154	0x05	5
155	0xf1	-15
156	0xfd	-3
157	0xfa	-6
158	0xf6	-10
159	0xfd	-3
160	0x0a	10
161	0xf3	-13
162	0x16	22
163	0xbf	-65
164	0x1d	29
165	0x2c	44
166	0xa7	-89
167	0x23	35
168	0x08	8
169	0xea	-22
170	0x06	6
171	0x23	35
172	0xa0	-96
173	0x38	56
174	0x3d	61
175	0x81	-127
176	0x42	66
177	0x06	6
178	0xe2	-30
179	0x0d	13
180	0x13	19
181	0xdc	-36
182	0x0a	10
183	0x0c	12
184	0xd3	-45
185	0x16	22
186	0xf3	-13
187	0x06	6
188	0xfd	-3
189	0xe2	-30
190	0x0d	13
191	0x03	3
192	0x96	-106
193	0xd4	-44
194	0x00	0
195	0xe5	-27
196	0x14	20
197	0x01	1
198	0xf1	-15
199	0xf5	-11
200	0xff	-1
201	0x81	-127
202	0x9e	-98
203	0xf9	-7
204	0xf9	-7
205	0xf8	-8
206	0x06	6
207	0xe7	-25
208	0x1e	30
209	0xf7	-9
210	0xf1	-15
211	0x0a	10
212	0x00	0
213	0xe8	-24
214	0x18	24
215	0xfe	-2
216	0x7b	123
217	0x7f	127
218	0x73	115
219	0x7a	122
220	0x7f	127
221	0x72	114
222	0x7a	122
223	0x7d	125
224	0x71	113
225	0x7b	123
226	0x7d	125
227	0x72	114
228	0x79	121
229	0x7c	124
230	0x70	112
231	0x7a	122
232	0x7c	124
233	0x70	112
234	0x79	121
235	0x7b	123
236	0x71	113
237	0x78	120
238	0x7b	123
239	0x70	112
240	0x79	121
241	0x7a	122
242	0x6f	111
243	0xe9	-23
244	0xf6	-10
245	0x07	7
246	0xf0	-16
247	0xf6	-10
248	0xfe	-2
249	0x05	5
250	0x04	4
251	0xf8	-8
252	0x5c	92
253	0x6f	111
254	0xf8	-8
255	0x48	72

model_1/expanded_conv_depthwise_BN/FusedBatchNormV3;model_1/expanded_conv_depthwise/depthwise;model_1/block_5_project/Conv2D i1 [1, 3, 3, 16]
0	0x94	-108
1	0x13	19
2	0xae	-82
3	0x82	-126
4	0x27	39
5	0xbd	-67
6	0x50	80
7	0xb4	-76
8	0xa6	-90
9	0xfd	-3
10	0xf8	-8
11	0x1d	29
12	0x81	-127
13	0x05	5
14	0x36	54
15	0xb7	-73
16	0x33	51
17	0x19	25
18	0x81	-127
19	0x7f	127
20	0x7f	127
21	0x81	-127
22	0x7f	127
23	0x81	-127
24	0xab	-85
25	0x7f	127
26	0x81	-127
27	0x33	51
28	0x97	-105
29	0x05	5
30	0x7f	127
31	0xe7	-25
32	0x18	24
33	0xe8	-24
34	0x5a	90
35	0xfe	-2
36	0xb8	-72
37	0x43	67
38	0xa1	-95
39	0x4d	77
40	0xa1	-95
41	0xe5	-27
42	0x04	4
43	0xf1	-15
44	0x3d	61
45	0x01	1
46	0x9a	-102
47	0xe3	-29
48	0x81	-127
49	0x7f	127
50	0xe9	-23
51	0x0d	13
52	0xd5	-43
53	0x0f	15
54	0xe3	-29
55	0x0e	14
56	0xe4	-28
57	0x00	0
58	0x03	3
59	0x94	-108
60	0xcf	-49
61	0x08	8
62	0xe2	-30
63	0xf2	-14
64	0xb2	-78
65	0xd7	-41
66	0xc6	-58
67	0xf1	-15
68	0xf9	-7
69	0xe6	-26
70	0x08	8
71	0xe4	-28
72	0x94	-108
73	0xa7	-89
74	0x15	21
75	0xf4	-12
76	0x98	-104
77	0x81	-127
78	0x01	1
79	0x17	23
80	0x0e	14
81	0x01	1
82	0x40	64
83	0x02	2
84	0x03	3
85	0x22	34
86	0xe6	-26
87	0x21	33
88	0x81	-127
89	0x06	6
90	0xfe	-2
91	0x02	2
92	0xeb	-21
93	0x0c	12
94	0xfc	-4
95	0x2b	43
96	0x8d	-115
97	0xb8	-72
98	0x44	68
99	0x02	2
100	0xfa	-6
101	0x27	39
102	0xd9	-39
103	0x34	52
104	0xb4	-76
105	0x00	0
106	0x00	0
107	0x04	4
108	0x28	40
109	0x02	2
110	0xe5	-27
111	0x17	23
112	0x17	23
113	0xfc	-4
114	0x1f	31
115	0xfe	-2
116	0xe5	-27
117	0x28	40
118	0xde	-34
119	0x14	20
120	0x83	-125
121	0xf3	-13
122	0x00	0
123	0x53	83
124	0xc6	-58
125	0x00	0
126	0xe3	-29
127	0x91	-111
128	0x15	21
129	0xf9	-7
130	0x12	18
131	0x00	0
132	0x04	4
133	0x0e	14
134	0x09	9
135	0x16	22
136	0x8d	-115
137	0x04	4
138	0xff	-1
139	0x81	-127
140	0x6b	107
141	0x03	3
142	0x11	17
143	0x81	-127

model_1/expanded_conv_project/Conv2D i1 [8, 1, 1, 16]
0	0x00	0
1	0xe9	-23
2	0x01	1
3	0x00	0
4	0x7f	127
5	0x03	3
6	0xff	-1
7	0x02	2
8	0xff	-1
9	0x84	-124
10	0xa6	-90
11	0xfd	-3
12	0x00	0
13	0x74	116
14	0xfe	-2
15	0x00	0
16	0x00	0
17	0xe2	-30
18	0xfc	-4
19	0x55	85
20	0x4a	74
21	0x0f	15
22	0x16	22
23	0x09	9
24	0xff	-1
25	0xfc	-4
26	0x7f	127
27	0xd5	-43
28	0x00	0
29	0x1f	31
30	0xf5	-11
31	0x00	0
32	0x00	0
33	0x00	0
34	0xfe	-2
35	0xf3	-13
36	0xc7	-57
37	0x00	0
38	0x09	9
39	0x02	2
40	0x01	1
41	0x05	5
42	0xee	-18
43	0x01	1
44	0x00	0
45	0x7f	127
46	0xf9	-7
47	0x00	0
48	0x00	0
49	0xf9	-7
50	0xee	-18
51	0x81	-127
52	0x52	82
53	0x1e	30
54	0x49	73
55	0x11	17
56	0xff	-1
57	0x3d	61
58	0x00	0
59	0x2b	43
60	0x00	0
61	0xff	-1
62	0x14	20
63	0x00	0
64	0x00	0
65	0x36	54
66	0xe5	-27
67	0x26	38
68	0xc6	-58
69	0x1c	28
70	0x7f	127
71	0x06	6
72	0x01	1
73	0xc0	-64
74	0x10	16
75	0xfa	-6
76	0x00	0
77	0xf6	-10
78	0x14	20
79	0x00	0
80	0x00	0
81	0xf3	-13
82	0xf4	-12
83	0x01	1
84	0xea	-22
85	0xea	-22
86	0xf2	-14
87	0x0e	14
88	0x00	0
89	0x0a	10
90	0xfb	-5
91	0xd6	-42
92	0x00	0
93	0xfb	-5
94	0x7f	127
95	0x00	0
96	0x00	0
97	0x0e	14
98	0xf9	-7
99	0x06	6
100	0x33	51
101	0xee	-18
102	0xe6	-26
103	0xfc	-4
104	0xff	-1
105	0x99	-103
106	0x70	112
107	0x3f	63
108	0x00	0
109	0x7f	127
110	0x39	57
111	0x00	0
112	0x00	0
113	0x0b	11
114	0xf2	-14
115	0x7f	127
116	0x0a	10
117	0x01	1
118	0x0f	15
119	0x0b	11
120	0x01	1
121	0x46	70
122	0xcf	-49
123	0x4e	78
124	0x00	0
125	0xfa	-6
126	0x30	48
127	0x00	0

model_1/block_1_expand/Conv2D i1 [48, 1, 1, 8]
0	0x0b	11
1	0x81	-127
2	0x2c	44
3	0xd5	-43
4	0x1c	28
5	0xeb	-21
6	0xd4	-44
7	0x1a	26
8	0x44	68
9	0x3e	62
10	0xea	-22
11	0xa7	-89
12	0x08	8
13	0xf4	-12
14	0xba	-70
15	0x7f	127
16	0x1d	29
17	0x04	4
18	0xd4	-44
19	0x79	121
20	0x2f	47
21	0x7f	127
22	0x38	56
23	0x60	96
24	0x50	80
25	0x50	80
26	0xb2	-78
27	0x7f	127
28	0xa7	-89
29	0xf4	-12
30	0xf7	-9
31	0x12	18
32	0xd9	-39
33	0x96	-106
34	0x4b	75
35	0x0d	13
36	0x0c	12
37	0x22	34
38	0xd4	-44
39	0x81	-127
40	0x14	20
41	0x07	7
42	0xdb	-37
43	0x33	51
44	0xff	-1
45	0xe2	-30
46	0x2f	47
47	0x7f	127
48	0x33	51
49	0xee	-18
50	0x81	-127
51	0xa6	-90
52	0x6f	111
53	0x12	18
54	0x34	52
55	0xe7	-25
56	0x7f	127
57	0x15	21
58	0x11	17
59	0xee	-18
60	0x1c	28
61	0xfb	-5
62	0x4f	79
63	0xc9	-55
64	0x15	21
65	0x96	-106
66	0x09	9
67	0x71	113
68	0x06	6
69	0x1c	28
70	0xfd	-3
71	0x81	-127
72	0x72	114
73	0x81	-127
74	0x09	9
75	0x04	4
76	0xef	-17
77	0x17	23
78	0x8a	-118
79	0x61	97
80	0x81	-127
81	0xdc	-36
82	0x8d	-115
83	0x1d	29
84	0x01	1
85	0x11	17
86	0x8c	-116
87	0x42	66
88	0xec	-20
89	0xd8	-40
90	0xfa	-6
91	0x97	-105
92	0x81	-127
93	0xdc	-36
94	0x2b	43
95	0xed	-19
96	0x12	18
97	0x08	8
98	0xda	-38
99	0x45	69
100	0xb8	-72
101	0xe5	-27
102	0x38	56
103	0x7f	127
104	0x00	0
105	0x00	0
106	0x00	0
107	0x00	0
108	0x00	0
109	0x00	0
110	0x00	0
111	0x00	0
112	0xf8	-8
113	0xe0	-32
114	0xf9	-7
115	0x06	6
116	0x29	41
117	0x7f	127
118	0x2d	45
119	0x27	39
120	0x2c	44
121	0x04	4
122	0x16	22
123	0x81	-127
124	0x41	65
125	0x30	48
126	0xc4	-60
127	0x43	67
128	0x00	0
129	0x00	0
130	0x00	0
131	0x00	0
132	0x00	0
133	0x00	0
134	0x00	0
135	0x00	0
136	0x15	21
137	0x1f	31
138	0x7f	127
139	0x19	25
140	0xdd	-35
141	0xf7	-9
142	0x1c	28
143	0x1f	31
144	0x5c	92
145	0x81	-127
146	0x14	20
147	0x24	36
148	0xf8	-8
149	0x1f	31
150	0x8f	-113
151	0x07	7
152	0x81	-127
153	0xf8	-8
154	0x1b	27
155	0x48	72
156	0xc7	-57
157	0xbe	-66
158	0xa4	-92
159	0x3f	63
160	0x25	37
161	0x25	37
162	0xd4	-44
163	0x7f	127
164	0xe9	-23
165	0x82	-126
166	0x00	0
167	0x40	64
168	0x3b	59
169	0x13	19
170	0x7f	127
171	0x0c	12
172	0xf2	-14
173	0xf5	-11
174	0x45	69
175	0x0c	12
176	0xb5	-75
177	0xf0	-16
178	0x81	-127
179	0xff	-1
180	0x07	7
181	0x02	2
182	0x95	-107
183	0x02	2
184	0xa5	-91
185	0x7f	127
186	0xf3	-13
187	0xf2	-14
188	0x08	8
189	0xfc	-4
190	0x7c	124
191	0xbe	-66
192	0x0a	10
193	0xd0	-48
194	0xcf	-49
195	0x52	82
196	0xf5	-11
197	0xc4	-60
198	0x61	97
199	0x7f	127
200	0x10	16
201	0x2b	43
202	0x1e	30
203	0x1b	27
204	0x7f	127
205	0x7e	126
206	0xb2	-78
207	0xd1	-47
208	0xb3	-77
209	0xe4	-28
210	0x81	-127
211	0x00	0
212	0x05	5
213	0x0f	15
214	0xa9	-87
215	0x04	4
216	0xfe	-2
217	0xe5	-27
218	0xd3	-45
219	0x00	0
220	0xc7	-57
221	0x7f	127
222	0x56	86
223	0x3b	59
224	0xfd	-3
225	0xe6	-26
226	0xe8	-24
227	0x25	37
228	0x19	25
229	0x7f	127
230	0x39	57
231	0x42	66
232	0x5d	93
233	0x24	36
234	0x7f	127
235	0xff	-1
236	0xeb	-21
237	0xf7	-9
238	0x60	96
239	0xfa	-6
240	0xa7	-89
241	0x7f	127
242	0xe3	-29
243	0xe0	-32
244	0x08	8
245	0xf4	-12
246	0x6c	108
247	0xd1	-47
248	0xd5	-43
249	0x9e	-98
250	0xee	-18
251	0xff	-1
252	0x1c	28
253	0xae	-82
254	0x7f	127
255	0x76	118

model_1/block_1_depthwise_BN/FusedBatchNormV3;model_1/block_1_depthwise/depthwise;model_1/block_3_depthwise/depthwise i1 [1, 3, 3, 48]
0	0xd5	-43
1	0xea	-22
2	0xf9	-7
3	0xf0	-16
4	0x07	7
5	0xd9	-39
6	0xb1	-79
7	0xbc	-68
8	0xe5	-27
9	0xce	-50
10	0x09	9
11	0x42	66
12	0x21	33
13	0xb9	-71
14	0x74	116
15	0xd5	-43
16	0x8f	-113
17	0xab	-85
18	0x25	37
19	0xfa	-6
20	0xff	-1
21	0xb7	-73
22	0x91	-111
23	0xb0	-80
24	0xde	-34
25	0x84	-124
26	0xc0	-64
27	0xea	-22
28	0x46	70
29	0x0f	15
30	0x5f	95
31	0x1b	27
32	0x81	-127
33	0xa6	-90
34	0xf9	-7
35	0x35	53
36	0x12	18
37	0x2f	47
38	0x81	-127
39	0x4f	79
40	0xb3	-77
41	0xf2	-14
42	0x69	105
43	0x93	-109
44	0xfe	-2
45	0xdc	-36
46	0xa9	-87
47	0x6b	107
48	0x4b	75
49	0x0c	12
50	0xe4	-28
51	0xe4	-28
52	0x3a	58
53	0x81	-127
54	0x81	-127
55	0xaf	-81
56	0x3c	60
57	0xb4	-76
58	0x8d	-115
59	0x6d	109
60	0x26	38
61	0xae	-82
62	0x00	0
63	0x3d	61
64	0xcc	-52
65	0x8f	-113
66	0x3b	59
67	0x07	7
68	0x0b	11
69	0x91	-111
70	0x81	-127
71	0xba	-70
72	0xfc	-4
73	0x81	-127
74	0x87	-121
75	0xd8	-40
76	0xca	-54
77	0x14	20
78	0xc8	-56
79	0x36	54
80	0x1d	29
81	0x81	-127
82	0x40	64
83	0x53	83
84	0x0d	13
85	0x47	71
86	0xa4	-92
87	0x7f	127
88	0x81	-127
89	0x06	6
90	0x7c	124
91	0x81	-127
92	0x03	3
93	0xe9	-23
94	0x81	-127
95	0x5e	94
96	0xdf	-33
97	0x2b	43
98	0x07	7
99	0xfb	-5
100	0xc0	-64
101	0x93	-109
102	0xc6	-58
103	0xee	-18
104	0x57	87
105	0xf8	-8
106	0x81	-127
107	0x27	39
108	0x08	8
109	0xb9	-71
110	0x9b	-101
111	0xf5	-11
112	0x81	-127
113	0xe7	-25
114	0x1b	27
115	0x0c	12
116	0xf1	-15
117	0xb3	-77
118	0xdc	-36
119	0xe8	-24
120	0xf5	-11
121	0xe2	-30
122	0xc7	-57
123	0xf5	-11
124	0xf6	-10
125	0x11	17
126	0xe9	-23
127	0x0a	10
128	0x6a	106
129	0xaa	-86
130	0x45	69
131	0x1f	31
132	0x0e	14
133	0x23	35
134	0xfd	-3
135	0x10	16
136	0xb1	-79
137	0x04	4
138	0x07	7
139	0xb1	-79
140	0xf0	-16
141	0x05	5
142	0xc9	-55
143	0x0e	14
144	0xaa	-86
145	0x81	-127
146	0xd4	-44
147	0xd4	-44
148	0xf6	-10
149	0x36	54
150	0x63	99
151	0x98	-104
152	0xe6	-26
153	0x95	-107
154	0xed	-19
155	0x70	112
156	0x5a	90
157	0xc0	-64
158	0x1c	28
159	0x9f	-97
160	0x87	-121
161	0xa1	-95
162	0x59	89
163	0xb4	-76
164	0x2a	42
165	0xa8	-88
166	0x99	-103
167	0x81	-127
168	0x2a	42
169	0x89	-119
170	0xb1	-79
171	0xda	-38
172	0x7f	127
173	0xc4	-60
174	0x7f	127
175	0x55	85
176	0xd5	-43
177	0xad	-83
178	0xf1	-15
179	0x54	84
180	0xde	-34
181	0xb3	-77
182	0x93	-109
183	0x5a	90
184	0x29	41
185	0x3b	59
186	0x68	104
187	0x92	-110
188	0xa6	-90
189	0x8b	-117
190	0x52	82
191	0x77	119
192	0x7f	127
193	0xae	-82
194	0x81	-127
195	0x81	-127
196	0x7f	127
197	0x29	41
198	0x5e	94
199	0x81	-127
200	0x65	101
201	0x81	-127
202	0x92	-110
203	0x7f	127
204	0x7f	127
205	0xf2	-14
206	0xfa	-6
207	0x7f	127
208	0xc4	-60
209	0x81	-127
210	0x7f	127
211	0x81	-127
212	0x7f	127
213	0x81	-127
214	0x89	-119
215	0x89	-119
216	0x7f	127
217	0x9d	-99
218	0x81	-127
219	0x81	-127
220	0x8a	-118
221	0x81	-127
222	0xba	-70
223	0x7f	127
224	0x1c	28
225	0x90	-112
226	0x7f	127
227	0x7f	127
228	0xbc	-68
229	0x81	-127
230	0x9e	-98
231	0x5a	90
232	0x3c	60
233	0x7f	127
234	0x7f	127
235	0x8a	-118
236	0x91	-111
237	0x81	-127
238	0x7d	125
239	0x7f	127
240	0xca	-54
241	0x20	32
242	0xc3	-61
243	0xaa	-86
244	0x8a	-118
245	0xe9	-23
246	0x1f	31
247	0xda	-38
248	0x7f	127
249	0xec	-20
250	0xb5	-75
251	0x24	36
252	0x37	55
253	0xba	-70
254	0xe7	-25
255	0xd4	-44

model_1/block_1_project/Conv2D i1 [8, 1, 1, 48]
0	0xf3	-13
1	0xfc	-4
2	0x0a	10
3	0xa0	-96
4	0x0b	11
5	0x1d	29
6	0x05	5
7	0x07	7
8	0x04	4
9	0x06	6
10	0x00	0
11	0xf8	-8
12	0x64	100
13	0x00	0
14	0x04	4
15	0x08	8
16	0x00	0
17	0xf9	-7
18	0xfc	-4
19	0xfe	-2
20	0x51	81
21	0xfe	-2
22	0x00	0
23	0x05	5
24	0x20	32
25	0x23	35
26	0x0d	13
27	0x0b	11
28	0x08	8
29	0x04	4
30	0x04	4
31	0x81	-127
32	0x09	9
33	0x08	8
34	0x02	2
35	0x02	2
36	0xe7	-25
37	0x01	1
38	0xed	-19
39	0x21	33
40	0x08	8
41	0xe5	-27
42	0xf6	-10
43	0x05	5
44	0xff	-1
45	0xfd	-3
46	0x03	3
47	0x02	2
48	0xdf	-33
49	0xfe	-2
50	0xfc	-4
51	0xfd	-3
52	0x28	40
53	0x16	22
54	0xe1	-31
55	0x4c	76
56	0x12	18
57	0x09	9
58	0xe4	-28
59	0xe8	-24
60	0x07	7
61	0x00	0
62	0x13	19
63	0x22	34
64	0x00	0
65	0x26	38
66	0x0e	14
67	0xd0	-48
68	0xfc	-4
69	0x16	22
70	0x7f	127
71	0x17	23
72	0xe1	-31
73	0xfc	-4
74	0x37	55
75	0x02	2
76	0x14	20
77	0xfc	-4
78	0x0e	14
79	0xf1	-15
80	0x0e	14
81	0xfb	-5
82	0xf7	-9
83	0xe9	-23
84	0x05	5
85	0xcc	-52
86	0x0a	10
87	0x03	3
88	0xf7	-9
89	0xf8	-8
90	0xaf	-81
91	0xf8	-8
92	0xd9	-39
93	0x0b	11
94	0xcd	-51
95	0xa4	-92
96	0xc3	-61
97	0x0c	12
98	0x02	2
99	0x0d	13
100	0x2e	46
101	0xf7	-9
102	0x1d	29
103	0x1a	26
104	0xf8	-8
105	0x35	53
106	0x07	7
107	0xfd	-3
108	0x06	6
109	0x00	0
110	0x08	8
111	0x37	55
112	0x00	0
113	0x0f	15
114	0x81	-127
115	0x19	25
116	0x00	0
117	0x0e	14
118	0x05	5
119	0xef	-17
120	0xdd	-35
121	0x02	2
122	0x24	36
123	0x08	8
124	0x0b	11
125	0x1e	30
126	0x19	25
127	0x06	6
128	0x02	2
129	0xf7	-9
130	0xf4	-12
131	0xf6	-10
132	0x0a	10
133	0x07	7
134	0x07	7
135	0x03	3
136	0x28	40
137	0xf7	-9
138	0xe4	-28
139	0xff	-1
140	0x1b	27
141	0xc4	-60
142	0x1b	27
143	0x11	17
144	0x04	4
145	0x04	4
146	0x01	1
147	0x0c	12
148	0xfc	-4
149	0x1e	30
150	0x00	0
151	0x02	2
152	0x44	68
153	0x13	19
154	0xfa	-6
155	0xf9	-7
156	0x16	22
157	0x00	0
158	0xde	-34
159	0xf8	-8
160	0x00	0
161	0x04	4
162	0xf9	-7
163	0x02	2
164	0xff	-1
165	0x03	3
166	0x06	6
167	0xec	-20
168	0xf2	-14
169	0xf5	-11
170	0xf4	-12
171	0x02	2
172	0xf6	-10
173	0xfe	-2
174	0x00	0
175	0xfa	-6
176	0xd1	-47
177	0x31	49
178	0xca	-54
179	0xfe	-2
180	0x05	5
181	0xfa	-6
182	0x00	0
183	0x81	-127
184	0x00	0
185	0x05	5
186	0x01	1
187	0xca	-54
188	0xff	-1
189	0xfe	-2
190	0xfe	-2
191	0x05	5
192	0xff	-1
193	0xfe	-2
194	0x4c	76
195	0x24	36
196	0x05	5
197	0xea	-22
198	0x04	4
199	0xfe	-2
200	0x02	2
201	0xfa	-6
202	0xfb	-5
203	0xf4	-12
204	0xad	-83
205	0x00	0
206	0xf3	-13
207	0x04	4
208	0x00	0
209	0x09	9
210	0x05	5
211	0x00	0
212	0x40	64
213	0x04	4
214	0xff	-1
215	0xfb	-5
216	0xed	-19
217	0x1d	29
218	0xfa	-6
219	0x2e	46
220	0xfc	-4
221	0x01	1
222	0x00	0
223	0x5f	95
224	0x04	4
225	0x00	0
226	0x01	1
227	0xfd	-3
228	0x0d	13
229	0xf8	-8
230	0xf4	-12
231	0xef	-17
232	0xfc	-4
233	0x81	-127
234	0x05	5
235	0x03	3
236	0xff	-1
237	0xfe	-2
238	0x03	3
239	0x00	0
240	0xf8	-8
241	0x2a	42
242	0x08	8
243	0xfa	-6
244	0x03	3
245	0x2f	47
246	0x19	25
247	0x0d	13
248	0xed	-19
249	0x1b	27
250	0x05	5
251	0x37	55
252	0x17	23
253	0x00	0
254	0x81	-127
255	0xff	-1

model_1/block_2_expand/Conv2D i1 [48, 1, 1, 8]
0	0x4c	76
1	0x23	35
2	0xf2	-14
3	0xf7	-9
4	0x7f	127
5	0x1d	29
6	0xcb	-53
7	0xe4	-28
8	0xfc	-4
9	0x02	2
10	0x00	0
11	0x7f	127
12	0x00	0
13	0xf8	-8
14	0x0a	10
15	0x09	9
16	0x22	34
17	0x81	-127
18	0xf1	-15
19	0x23	35
20	0xf2	-14
21	0xc1	-63
22	0x53	83
23	0x0b	11
24	0x7f	127
25	0xee	-18
26	0xf5	-11
27	0x0c	12
28	0xfb	-5
29	0xe0	-32
30	0x1b	27
31	0xff	-1
32	0x0f	15
33	0xc3	-61
34	0x7f	127
35	0xe5	-27
36	0xf6	-10
37	0xc5	-59
38	0x12	18
39	0xa2	-94
40	0x2d	45
41	0x04	4
42	0x03	3
43	0xf6	-10
44	0x7f	127
45	0x10	16
46	0xf4	-12
47	0x05	5
48	0xf9	-7
49	0x54	84
50	0xf9	-7
51	0x7f	127
52	0x1a	26
53	0x3d	61
54	0xc9	-55
55	0xc4	-60
56	0xfd	-3
57	0x7f	127
58	0xfd	-3
59	0x02	2
60	0xfa	-6
61	0xf3	-13
62	0x09	9
63	0xf7	-9
64	0x7f	127
65	0x41	65
66	0x01	1
67	0x09	9
68	0xc8	-56
69	0xe9	-23
70	0xff	-1
71	0xd6	-42
72	0x81	-127
73	0x0a	10
74	0x06	6
75	0x12	18
76	0x3c	60
77	0x11	17
78	0xee	-18
79	0x00	0
80	0xa9	-87
81	0xfb	-5
82	0x19	25
83	0x7f	127
84	0x37	55
85	0x1d	29
86	0xeb	-21
87	0x02	2
88	0x81	-127
89	0x06	6
90	0x1a	26
91	0xc6	-58
92	0x2c	44
93	0x15	21
94	0xe9	-23
95	0xc9	-55
96	0x7f	127
97	0x1c	28
98	0x00	0
99	0x11	17
100	0xda	-38
101	0xf4	-12
102	0x03	3
103	0xd0	-48
104	0xef	-17
105	0x59	89
106	0x81	-127
107	0xf7	-9
108	0x0a	10
109	0x73	115
110	0xb1	-79
111	0x49	73
112	0xd4	-44
113	0xea	-22
114	0xed	-19
115	0x7f	127
116	0x16	22
117	0x10	16
118	0xf8	-8
119	0xde	-34
120	0xfa	-6
121	0x7f	127
122	0x03	3
123	0xfd	-3
124	0xfe	-2
125	0xf3	-13
126	0x09	9
127	0xce	-50
128	0xec	-20
129	0x81	-127
130	0xf9	-7
131	0x08	8
132	0x03	3
133	0x9b	-101
134	0x6f	111
135	0xf2	-14
136	0x18	24
137	0x7f	127
138	0x03	3
139	0xf6	-10
140	0x07	7
141	0x47	71
142	0xaa	-86
143	0xee	-18
144	0xf8	-8
145	0x2c	44
146	0x81	-127
147	0xfc	-4
148	0x02	2
149	0x37	55
150	0xe0	-32
151	0x3c	60
152	0xa8	-88
153	0x21	33
154	0xfa	-6
155	0xff	-1
156	0x81	-127
157	0xfb	-5
158	0x0f	15
159	0x17	23
160	0x81	-127
161	0xea	-22
162	0x00	0
163	0xf3	-13
164	0x3d	61
165	0xe9	-23
166	0x22	34
167	0x02	2
168	0xc5	-59
169	0xfc	-4
170	0xff	-1
171	0x02	2
172	0x81	-127
173	0x04	4
174	0x0f	15
175	0x01	1
176	0x81	-127
177	0xde	-34
178	0xfe	-2
179	0x06	6
180	0x55	85
181	0xf2	-14
182	0x22	34
183	0x35	53
184	0xf0	-16
185	0xe6	-26
186	0xfa	-6
187	0xf5	-11
188	0xfa	-6
189	0x53	83
190	0x81	-127
191	0xa4	-92
192	0xf3	-13
193	0x2c	44
194	0x81	-127
195	0x03	3
196	0x0d	13
197	0x35	53
198	0xea	-22
199	0x4e	78
200	0x5a	90
201	0xe0	-32
202	0xfb	-5
203	0x7f	127
204	0xc5	-59
205	0xf5	-11
206	0x07	7
207	0xcf	-49
208	0x01	1
209	0xea	-22
210	0xfb	-5
211	0x01	1
212	0xfb	-5
213	0x72	114
214	0x7f	127
215	0xe7	-25
216	0x42	66
217	0xfe	-2
218	0xfb	-5
219	0x0c	12
220	0x7f	127
221	0x1d	29
222	0x1e	30
223	0xeb	-21
224	0xf9	-7
225	0x7f	127
226	0xc7	-57
227	0x07	7
228	0x0c	12
229	0x51	81
230	0xde	-34
231	0x72	114
232	0xf7	-9
233	0x0c	12
234	0xff	-1
235	0xf8	-8
236	0x02	2
237	0x58	88
238	0x81	-127
239	0xac	-84
240	0x06	6
241	0xfb	-5
242	0x00	0
243	0x81	-127
244	0xf8	-8
245	0xfe	-2
246	0xfe	-2
247	0xf1	-15
248	0xb8	-72
249	0x0a	10
250	0x01	1
251	0x02	2
252	0x81	-127
253	0x09	9
254	0x10	16
255	0xfc	-4

model_1/block_2_depthwise_BN/FusedBatchNormV3;model_1/block_2_depthwise/depthwise;model_1/block_3_depthwise/depthwise i1 [1, 3, 3, 48]
0	0x04	4
1	0xfd	-3
2	0x14	20
3	0x6e	110
4	0x04	4
5	0x51	81
6	0xff	-1
7	0x1c	28
8	0x10	16
9	0x08	8
10	0x0a	10
11	0x08	8
12	0xf8	-8
13	0xf7	-9
14	0xd4	-44
15	0x08	8
16	0xfe	-2
17	0x08	8
18	0xea	-22
19	0x8e	-114
20	0xfa	-6
21	0xe9	-23
22	0x7f	127
23	0xf7	-9
24	0xfd	-3
25	0x07	7
26	0xfb	-5
27	0x09	9
28	0xfb	-5
29	0x05	5
30	0x0f	15
31	0x63	99
32	0x14	20
33	0x1d	29
34	0x26	38
35	0xe5	-27
36	0x01	1
37	0x23	35
38	0xff	-1
39	0x02	2
40	0x11	17
41	0xbb	-69
42	0xf7	-9
43	0xf8	-8
44	0x10	16
45	0x03	3
46	0xf9	-7
47	0xf5	-11
48	0x7f	127
49	0x0a	10
50	0x0f	15
51	0x81	-127
52	0x1c	28
53	0x57	87
54	0x0a	10
55	0x0b	11
56	0x7c	124
57	0x7f	127
58	0x07	7
59	0x2b	43
60	0xce	-50
61	0xe8	-24
62	0x05	5
63	0x08	8
64	0x7f	127
65	0xc8	-56
66	0xc6	-58
67	0xc8	-56
68	0x9c	-100
69	0x19	25
70	0x92	-110
71	0x0f	15
72	0x11	17
73	0x47	71
74	0xe1	-31
75	0xad	-83
76	0x17	23
77	0x15	21
78	0x09	9
79	0x85	-123
80	0x05	5
81	0xc3	-61
82	0x7f	127
83	0x0a	10
84	0xd8	-40
85	0xd1	-47
86	0xfb	-5
87	0x74	116
88	0xb1	-79
89	0x9e	-98
90	0xe2	-30
91	0x03	3
92	0xdd	-35
93	0xf8	-8
94	0x81	-127
95	0x17	23
96	0xe0	-32
97	0xfd	-3
98	0x08	8
99	0x0f	15
100	0xff	-1
101	0x40	64
102	0x04	4
103	0x12	18
104	0x1c	28
105	0x09	9
106	0xf3	-13
107	0x20	32
108	0xf2	-14
109	0xfd	-3
110	0x10	16
111	0x03	3
112	0x99	-103
113	0x1d	29
114	0xfd	-3
115	0x4f	79
116	0xe1	-31
117	0xf4	-12
118	0xee	-18
119	0xfa	-6
120	0xfc	-4
121	0xc5	-59
122	0xfd	-3
123	0x1d	29
124	0xef	-17
125	0x05	5
126	0x04	4
127	0xeb	-21
128	0x08	8
129	0xe9	-23
130	0x11	17
131	0xed	-19
132	0x00	0
133	0x30	48
134	0x2b	43
135	0xf4	-12
136	0x32	50
137	0x27	39
138	0xf0	-16
139	0x0b	11
140	0xd5	-43
141	0x03	3
142	0xfe	-2
143	0xfa	-6
144	0x7e	126
145	0x06	6
146	0x01	1
147	0x9e	-98
148	0x0d	13
149	0xe5	-27
150	0x23	35
151	0xf0	-16
152	0x09	9
153	0x09	9
154	0xf4	-12
155	0x36	54
156	0xf9	-7
157	0xff	-1
158	0x12	18
159	0xdf	-33
160	0x00	0
161	0xce	-50
162	0xc6	-58
163	0xab	-85
164	0x0a	10
165	0xb6	-74
166	0x83	-125
167	0xee	-18
168	0x05	5
169	0x63	99
170	0xf2	-14
171	0x81	-127
172	0xf7	-9
173	0x21	33
174	0x0a	10
175	0x95	-107
176	0x11	17
177	0xcb	-53
178	0xfe	-2
179	0x7f	127
180	0xfd	-3
181	0x3b	59
182	0xd7	-41
183	0x29	41
184	0xc1	-63
185	0x81	-127
186	0x27	39
187	0xa8	-88
188	0xd3	-45
189	0xf2	-14
190	0xf3	-13
191	0xfb	-5
192	0x1b	27
193	0x81	-127
194	0x81	-127
195	0x73	115
196	0x81	-127
197	0x81	-127
198	0x81	-127
199	0x81	-127
200	0x81	-127
201	0xa0	-96
202	0x7f	127
203	0x81	-127
204	0x7f	127
205	0x7f	127
206	0x23	35
207	0x81	-127
208	0xad	-83
209	0x7f	127
210	0x7f	127
211	0x96	-106
212	0x7f	127
213	0x7f	127
214	0x70	112
215	0x7f	127
216	0x7f	127
217	0x81	-127
218	0x81	-127
219	0x1c	28
220	0x81	-127
221	0x81	-127
222	0x5d	93
223	0x7f	127
224	0x81	-127
225	0x7f	127
226	0xe4	-28
227	0xd7	-41
228	0x7f	127
229	0x81	-127
230	0x7f	127
231	0x7f	127
232	0x7f	127
233	0xb0	-80
234	0x7f	127
235	0x7f	127
236	0x7f	127
237	0x88	-120
238	0x65	101
239	0x6a	106
240	0x36	54
241	0x05	5
242	0x30	48
243	0xf3	-13
244	0x05	5
245	0xc3	-61
246	0x2c	44
247	0x12	18
248	0xe9	-23
249	0x0f	15
250	0x99	-103
251	0xf8	-8
252	0x00	0
253	0xd8	-40
254	0x7f	127
255	0x04	4

model_1/block_2_project/Conv2D i1 [8, 1, 1, 48]
0	0xd1	-47
1	0xf1	-15
2	0xd4	-44
3	0x14	20
4	0x0c	12
5	0xea	-22
6	0x01	1
7	0xfd	-3
8	0x8c	-116
9	0x7f	127
10	0xda	-38
11	0x6e	110
12	0x6d	109
13	0x0c	12
14	0x47	71
15	0xe6	-26
16	0xff	-1
17	0xdf	-33
18	0x02	2
19	0x08	8
20	0xff	-1
21	0x03	3
22	0xe9	-23
23	0xda	-38
24	0x1c	28
25	0xab	-85
26	0x10	16
27	0x3e	62
28	0xf8	-8
29	0x10	16
30	0x17	23
31	0xe0	-32
32	0x02	2
33	0xb6	-74
34	0x6f	111
35	0x0d	13
36	0x00	0
37	0xfa	-6
38	0x00	0
39	0xeb	-21
40	0x74	116
41	0x09	9
42	0x2f	47
43	0xee	-18
44	0xe7	-25
45	0x10	16
46	0xf2	-14
47	0xee	-18
48	0xf8	-8
49	0x21	33
50	0x7f	127
51	0x01	1
52	0xfa	-6
53	0xe9	-23
54	0x01	1
55	0xb5	-75
56	0x1e	30
57	0xfd	-3
58	0x14	20
59	0x01	1
60	0xed	-19
61	0x01	1
62	0xf5	-11
63	0x90	-112
64	0x05	5
65	0xc5	-59
66	0x0d	13
67	0x01	1
68	0xe9	-23
69	0x23	35
70	0x1e	30
71	0xe1	-31
72	0xec	-20
73	0xfa	-6
74	0x08	8
75	0xfb	-5
76	0x0d	13
77	0xfd	-3
78	0x0f	15
79	0xfb	-5
80	0x01	1
81	0x0b	11
82	0x0d	13
83	0x0f	15
84	0xec	-20
85	0xe4	-28
86	0x3e	62
87	0xd0	-48
88	0x06	6
89	0x24	36
90	0xf1	-15
91	0x1a	26
92	0xeb	-21
93	0x06	6
94	0x14	20
95	0xff	-1
96	0x07	7
97	0xd0	-48
98	0x0f	15
99	0xd7	-41
100	0x21	33
101	0x1d	29
102	0xfc	-4
103	0xe2	-30
104	0x03	3
105	0x01	1
106	0xff	-1
107	0x0c	12
108	0xf4	-12
109	0x37	55
110	0x05	5
111	0xff	-1
112	0xdc	-36
113	0x7f	127
114	0xe6	-26
115	0xe1	-31
116	0xf2	-14
117	0x16	22
118	0xd9	-39
119	0xfa	-6
120	0x77	119
121	0x04	4
122	0x03	3
123	0xfd	-3
124	0xe2	-30
125	0xfa	-6
126	0x00	0
127	0xda	-38
128	0xf5	-11
129	0xf5	-11
130	0x03	3
131	0x0d	13
132	0xf9	-7
133	0xfe	-2
134	0xf3	-13
135	0x04	4
136	0x12	18
137	0xed	-19
138	0xec	-20
139	0x01	1
140	0x03	3
141	0x18	24
142	0xe8	-24
143	0xd9	-39
144	0x01	1
145	0xa6	-90
146	0x00	0
147	0x05	5
148	0x02	2
149	0xf9	-7
150	0xf4	-12
151	0xfe	-2
152	0xfa	-6
153	0xf5	-11
154	0x10	16
155	0x11	17
156	0x0a	10
157	0xf5	-11
158	0x31	49
159	0x02	2
160	0xf2	-14
161	0xe7	-25
162	0x06	6
163	0x17	23
164	0xf9	-7
165	0x18	24
166	0xea	-22
167	0x05	5
168	0x04	4
169	0x36	54
170	0xfd	-3
171	0x05	5
172	0xfa	-6
173	0x05	5
174	0x7f	127
175	0xfd	-3
176	0x0f	15
177	0x06	6
178	0xfe	-2
179	0x01	1
180	0xe8	-24
181	0xf5	-11
182	0xf7	-9
183	0x0e	14
184	0xf5	-11
185	0x07	7
186	0xf5	-11
187	0x1d	29
188	0xf8	-8
189	0xfe	-2
190	0x02	2
191	0x21	33
192	0x98	-104
193	0x0b	11
194	0x07	7
195	0x06	6
196	0x02	2
197	0xdd	-35
198	0x05	5
199	0x07	7
200	0x2b	43
201	0xd7	-41
202	0x15	21
203	0xef	-17
204	0xdf	-33
205	0xfd	-3
206	0xf6	-10
207	0xfb	-5
208	0x07	7
209	0x0c	12
210	0xfe	-2
211	0x1c	28
212	0x0e	14
213	0xe8	-24
214	0x0e	14
215	0xfe	-2
216	0xf6	-10
217	0x30	48
218	0x03	3
219	0x71	113
220	0x03	3
221	0x02	2
222	0xfd	-3
223	0xe7	-25
224	0x01	1
225	0x81	-127
226	0xe3	-29
227	0x03	3
228	0x03	3
229	0x00	0
230	0x08	8
231	0xfd	-3
232	0xcf	-49
233	0xfe	-2
234	0xf5	-11
235	0x15	21
236	0xc3	-61
237	0x01	1
238	0x07	7
239	0x0a	10
240	0xeb	-21
241	0x1d	29
242	0x1c	28
243	0x07	7
244	0xd4	-44
245	0x0d	13
246	0x02	2
247	0x2d	45
248	0x14	20
249	0x08	8
250	0x10	16
251	0x0e	14
252	0xfa	-6
253	0xd4	-44
254	0x0e	14
255	0x29	41

model_1/block_3_expand/Conv2D i1 [48, 1, 1, 8]
0	0x81	-127
1	0x04	4
2	0xfa	-6
3	0x48	72
4	0xda	-38
5	0x2b	43
6	0x18	24
7	0xde	-34
8	0x1b	27
9	0x47	71
10	0x2d	45
11	0x14	20
12	0x0e	14
13	0xcf	-49
14	0x5e	94
15	0x7f	127
16	0xe2	-30
17	0x02	2
18	0x05	5
19	0x00	0
20	0x81	-127
21	0xf4	-12
22	0x0e	14
23	0xfc	-4
24	0x68	104
25	0xfb	-5
26	0xf4	-12
27	0x81	-127
28	0x84	-124
29	0x13	19
30	0x27	39
31	0xee	-18
32	0x81	-127
33	0x36	54
34	0xec	-20
35	0xec	-20
36	0x5d	93
37	0xf3	-13
38	0x35	53
39	0x13	19
40	0x96	-106
41	0xde	-34
42	0x0e	14
43	0xf1	-15
44	0x81	-127
45	0x0d	13
46	0x06	6
47	0x56	86
48	0xf5	-11
49	0x81	-127
50	0x25	37
51	0xe7	-25
52	0x15	21
53	0xff	-1
54	0x04	4
55	0x2c	44
56	0xbc	-68
57	0xf6	-10
58	0x02	2
59	0x64	100
60	0x7f	127
61	0xe5	-27
62	0xde	-34
63	0x0c	12
64	0x4c	76
65	0x01	1
66	0x06	6
67	0x81	-127
68	0x05	5
69	0xe7	-25
70	0xcd	-51
71	0xe0	-32
72	0xfd	-3
73	0x81	-127
74	0xfe	-2
75	0xf7	-9
76	0x06	6
77	0x63	99
78	0xc2	-62
79	0x4e	78
80	0xad	-83
81	0xfc	-4
82	0x0d	13
83	0x19	25
84	0x81	-127
85	0x42	66
86	0x3a	58
87	0xef	-17
88	0x70	112
89	0x0c	12
90	0x25	37
91	0x13	19
92	0xc5	-59
93	0xcf	-49
94	0xe2	-30
95	0x81	-127
96	0xfe	-2
97	0x0d	13
98	0x2c	44
99	0x00	0
100	0x0d	13
101	0xad	-83
102	0x7f	127
103	0x44	68
104	0x39	57
105	0xe5	-27
106	0xfc	-4
107	0xf2	-14
108	0x7b	123
109	0x7f	127
110	0x73	115
111	0xd7	-41
112	0x7f	127
113	0x32	50
114	0xfe	-2
115	0x12	18
116	0x88	-120
117	0xf6	-10
118	0xd6	-42
119	0xe6	-26
120	0xf4	-12
121	0x81	-127
122	0x16	22
123	0xf0	-16
124	0x02	2
125	0x09	9
126	0xff	-1
127	0x1d	29
128	0xca	-54
129	0xfb	-5
130	0x03	3
131	0xff	-1
132	0x81	-127
133	0xfa	-6
134	0x0f	15
135	0xff	-1
136	0xe7	-25
137	0x61	97
138	0x81	-127
139	0x08	8
140	0x09	9
141	0x85	-123
142	0x67	103
143	0xab	-85
144	0x7f	127
145	0xe1	-31
146	0xcf	-49
147	0x13	19
148	0xc6	-58
149	0x15	21
150	0x09	9
151	0x6c	108
152	0x7f	127
153	0xda	-38
154	0xf0	-16
155	0xfe	-2
156	0x28	40
157	0x02	2
158	0x26	38
159	0xfc	-4
160	0x7f	127
161	0x1a	26
162	0xf0	-16
163	0x79	121
164	0x04	4
165	0x2f	47
166	0xfa	-6
167	0xbb	-69
168	0x08	8
169	0x23	35
170	0xc3	-61
171	0x0b	11
172	0xf1	-15
173	0x51	81
174	0x81	-127
175	0xac	-84
176	0x81	-127
177	0x0e	14
178	0x20	32
179	0xf9	-7
180	0xdf	-33
181	0x08	8
182	0xbc	-68
183	0xe1	-31
184	0xdb	-37
185	0xc5	-59
186	0x09	9
187	0x18	24
188	0x81	-127
189	0x3e	62
190	0x50	80
191	0xf0	-16
192	0x7f	127
193	0xf8	-8
194	0xf3	-13
195	0xf2	-14
196	0x99	-103
197	0x04	4
198	0x0a	10
199	0x0a	10
200	0x16	22
201	0xf9	-7
202	0x03	3
203	0xe9	-23
204	0x7f	127
205	0x2e	46
206	0x34	52
207	0xde	-34
208	0x03	3
209	0xa4	-92
210	0x0d	13
211	0xd8	-40
212	0x00	0
213	0x81	-127
214	0x4b	75
215	0xc5	-59
216	0xed	-19
217	0x81	-127
218	0x1c	28
219	0xf2	-14
220	0xfe	-2
221	0xc7	-57
222	0x20	32
223	0xfa	-6
224	0x95	-107
225	0x1e	30
226	0xd3	-45
227	0x0a	10
228	0x02	2
229	0xeb	-21
230	0x7f	127
231	0x74	116
232	0xf3	-13
233	0x2a	42
234	0x0f	15
235	0x02	2
236	0xfe	-2
237	0x2b	43
238	0x94	-108
239	0x81	-127
240	0x7f	127
241	0xe4	-28
242	0xfa	-6
243	0x02	2
244	0xb6	-74
245	0x06	6
246	0xcd	-51
247	0xde	-34
248	0x03	3
249	0xee	-18
250	0x4e	78
251	0xec	-20
252	0x06	6
253	0x81	-127
254	0x7d	125
255	0x41	65

model_1/block_3_depthwise_BN/FusedBatchNormV3;model_1/block_3_depthwise/depthwise i1 [1, 3, 3, 48]
0	0x44	68
1	0xa4	-92
2	0x61	97
3	0x48	72
4	0x35	53
5	0xde	-34
6	0x6c	108
7	0xc0	-64
8	0x3c	60
9	0xa7	-89
10	0xb0	-80
11	0x2f	47
12	0x34	52
13	0xd6	-42
14	0xb9	-71
15	0xa8	-88
16	0x65	101
17	0x4e	78
18	0x31	49
19	0x4e	78
20	0x42	66
21	0xb7	-73
22	0xac	-84
23	0x33	51
24	0xe1	-31
25	0xd8	-40
26	0xc0	-64
27	0xc0	-64
28	0xbe	-66
29	0x3d	61
30	0xc2	-62
31	0x8d	-115
32	0xf3	-13
33	0x29	41
34	0x46	70
35	0x41	65
36	0xbf	-65
37	0x34	52
38	0xcd	-51
39	0xe7	-25
40	0x32	50
41	0xb8	-72
42	0x39	57
43	0x3e	62
44	0xa3	-93
45	0x0a	10
46	0x4b	75
47	0xdf	-33
48	0x50	80
49	0xa0	-96
50	0x7f	127
51	0x55	85
52	0xb3	-77
53	0xbd	-67
54	0xc7	-57
55	0xaa	-86
56	0x5f	95
57	0x9a	-102
58	0xc0	-64
59	0x4a	74
60	0x50	80
61	0x95	-107
62	0xa2	-94
63	0x5d	93
64	0xdb	-37
65	0x5f	95
66	0x53	83
67	0x7f	127
68	0x54	84
69	0x8e	-114
70	0x34	52
71	0x47	71
72	0xce	-50
73	0xb3	-77
74	0xbc	-68
75	0xb1	-79
76	0x38	56
77	0x4f	79
78	0xe2	-30
79	0x81	-127
80	0xaa	-86
81	0x4f	79
82	0x52	82
83	0x54	84
84	0xae	-82
85	0x52	82
86	0xad	-83
87	0xee	-18
88	0x4c	76
89	0x9f	-97
90	0x52	82
91	0x59	89
92	0xb8	-72
93	0x81	-127
94	0x5e	94
95	0x9c	-100
96	0x23	35
97	0xd2	-46
98	0x46	70
99	0x24	36
100	0x13	19
101	0xd7	-41
102	0xd0	-48
103	0xd8	-40
104	0x29	41
105	0xe1	-31
106	0x04	4
107	0x22	34
108	0x1d	29
109	0xb2	-78
110	0xca	-54
111	0x00	0
112	0xcb	-53
113	0x25	37
114	0x24	36
115	0x46	70
116	0x22	34
117	0xc9	-55
118	0x1f	31
119	0x19	25
120	0xe7	-25
121	0xd2	-46
122	0xd4	-44
123	0xe9	-23
124	0x1f	31
125	0x1e	30
126	0x58	88
127	0xa6	-90
128	0xad	-83
129	0x2b	43
130	0x23	35
131	0x21	33
132	0xe3	-29
133	0x27	39
134	0xdb	-37
135	0xf6	-10
136	0x29	41
137	0xd6	-42
138	0x22	34
139	0x2b	43
140	0xfb	-5
141	0xf7	-9
142	0x24	36
143	0xb9	-71
144	0x5d	93
145	0x90	-112
146	0xd7	-41
147	0x5e	94
148	0x37	55
149	0xae	-82
150	0x7f	127
151	0xa7	-89
152	0x57	87
153	0x8e	-114
154	0xb8	-72
155	0x52	82
156	0x53	83
157	0x93	-109
158	0xf3	-13
159	0x81	-127
160	0x7f	127
161	0x6a	106
162	0x4a	74
163	0xda	-38
164	0x53	83
165	0x6c	108
166	0x81	-127
167	0x49	73
168	0x49	73
169	0xb5	-75
170	0xa2	-94
171	0x9d	-99
172	0x81	-127
173	0x56	86
174	0xbc	-68
175	0xf7	-9
176	0xa9	-87
177	0x45	69
178	0x6a	106
179	0x60	96
180	0xab	-85
181	0x4d	77
182	0xaf	-81
183	0x58	88
184	0x54	84
185	0x9c	-100
186	0x57	87
187	0x5a	90
188	0xa9	-87
189	0x69	105
190	0x5d	93
191	0xa4	-92
192	0x7f	127
193	0x81	-127
194	0xbe	-66
195	0x7f	127
196	0x81	-127
197	0x81	-127
198	0xa4	-92
199	0x81	-127
200	0x7f	127
201	0x81	-127
202	0x81	-127
203	0x7f	127
204	0x7f	127
205	0x81	-127
206	0xea	-22
207	0x61	97
208	0xc1	-63
209	0x7f	127
210	0x7f	127
211	0xcc	-52
212	0x7f	127
213	0x7f	127
214	0x45	69
215	0x7f	127
216	0x7f	127
217	0x81	-127
218	0x81	-127
219	0x81	-127
220	0x35	53
221	0x7f	127
222	0xe4	-28
223	0x10	16
224	0x81	-127
225	0x7f	127
226	0x7f	127
227	0x7f	127
228	0x81	-127
229	0x7f	127
230	0x81	-127
231	0x7f	127
232	0x7f	127
233	0x81	-127
234	0x7f	127
235	0x7f	127
236	0x81	-127
237	0xf4	-12
238	0x7f	127
239	0x81	-127
240	0x3e	62
241	0xb3	-77
242	0xdf	-33
243	0x43	67
244	0x26	38
245	0xc1	-63
246	0xcf	-49
247	0xc1	-63
248	0x38	56
249	0xd7	-41
250	0xc6	-58
251	0x3a	58
252	0x30	48
253	0xcb	-53
254	0xf0	-16
255	0x0a	10

model_1/block_3_project/Conv2D i1 [16, 1, 1, 48]
0	0xf0	-16
1	0xfd	-3
2	0xe9	-23
3	0x08	8
4	0x1c	28
5	0x00	0
6	0x05	5
7	0x66	102
8	0xca	-54
9	0x14	20
10	0x30	48
11	0xfa	-6
12	0x12	18
13	0xed	-19
14	0xf2	-14
15	0x0e	14
16	0x11	17
17	0xf2	-14
18	0xfa	-6
19	0xf6	-10
20	0x47	71
21	0xf9	-7
22	0x16	22
23	0x7f	127
24	0xf1	-15
25	0x53	83
26	0xfa	-6
27	0xf0	-16
28	0x1f	31
29	0xf0	-16
30	0x1c	28
31	0xdc	-36
32	0xf6	-10
33	0x34	52
34	0x14	20
35	0xd0	-48
36	0x12	18
37	0x33	51
38	0x11	17
39	0xf5	-11
40	0x93	-109
41	0xe7	-25
42	0x16	22
43	0x2e	46
44	0x27	39
45	0x1c	28
46	0x86	-122
47	0xcf	-49
48	0xdc	-36
49	0xf2	-14
50	0x1a	26
51	0x0d	13
52	0xe0	-32
53	0x09	9
54	0x02	2
55	0x39	57
56	0xc7	-57
57	0xdd	-35
58	0x03	3
59	0xd4	-44
60	0xea	-22
61	0xed	-19
62	0xff	-1
63	0xfd	-3
64	0xe9	-23
65	0x78	120
66	0xf8	-8
67	0x16	22
68	0x0c	12
69	0x06	6
70	0xe8	-24
71	0xf1	-15
72	0x1a	26
73	0xd3	-45
74	0x0e	14
75	0x18	24
76	0xe6	-26
77	0xa9	-87
78	0xd8	-40
79	0x17	23
80	0xe8	-24
81	0x00	0
82	0x1f	31
83	0x02	2
84	0xfa	-6
85	0xd8	-40
86	0x01	1
87	0x10	16
88	0xef	-17
89	0xda	-38
90	0x7f	127
91	0x0c	12
92	0x0b	11
93	0x04	4
94	0x16	22
95	0xf3	-13
96	0xf0	-16
97	0xf7	-9
98	0xf5	-11
99	0xd6	-42
100	0xff	-1
101	0xbe	-66
102	0x05	5
103	0xeb	-21
104	0xfc	-4
105	0x10	16
106	0x07	7
107	0x13	19
108	0x11	17
109	0x0b	11
110	0xf8	-8
111	0x0a	10
112	0xfe	-2
113	0xee	-18
114	0xe8	-24
115	0xef	-17
116	0xf6	-10
117	0x00	0
118	0x02	2
119	0x81	-127
120	0xf1	-15
121	0x44	68
122	0xf2	-14
123	0x05	5
124	0xfb	-5
125	0xe8	-24
126	0xfc	-4
127	0xfa	-6
128	0xf8	-8
129	0x37	55
130	0x09	9
131	0x00	0
132	0x17	23
133	0x0e	14
134	0x18	24
135	0x00	0
136	0xda	-38
137	0xff	-1
138	0xed	-19
139	0x00	0
140	0x01	1
141	0xf6	-10
142	0x0f	15
143	0x06	6
144	0xf8	-8
145	0x22	34
146	0x01	1
147	0xe2	-30
148	0xff	-1
149	0xfc	-4
150	0x02	2
151	0xff	-1
152	0xed	-19
153	0xfa	-6
154	0xfb	-5
155	0x27	39
156	0x81	-127
157	0x03	3
158	0xfb	-5
159	0xfd	-3
160	0xfe	-2
161	0x04	4
162	0xe8	-24
163	0xfd	-3
164	0xdf	-33
165	0x03	3
166	0x03	3
167	0x13	19
168	0xf7	-9
169	0xf7	-9
170	0x00	0
171	0x18	24
172	0xf9	-7
173	0x13	19
174	0x07	7
175	0x13	19
176	0x02	2
177	0x00	0
178	0x12	18
179	0x14	20
180	0xf7	-9
181	0x18	24
182	0x29	41
183	0x05	5
184	0x0c	12
185	0x0a	10
186	0x18	24
187	0xe2	-30
188	0x05	5
189	0xfc	-4
190	0x01	1
191	0x10	16
192	0x27	39
193	0xde	-34
194	0x07	7
195	0x0a	10
196	0x14	20
197	0x1d	29
198	0x13	19
199	0xe6	-26
200	0xe1	-31
201	0x06	6
202	0xf4	-12
203	0xeb	-21
204	0x02	2
205	0x08	8
206	0x05	5
207	0x0e	14
208	0x19	25
209	0xfa	-6
210	0xb0	-80
211	0x04	4
212	0xfa	-6
213	0x09	9
214	0x0f	15
215	0x48	72
216	0x00	0
217	0xe3	-29
218	0x05	5
219	0x31	49
220	0x09	9
221	0xb2	-78
222	0x15	21
223	0x0a	10
224	0x0e	14
225	0xdc	-36
226	0x1e	30
227	0x81	-127
228	0x0d	13
229	0x26	38
230	0xfe	-2
231	0x10	16
232	0xed	-19
233	0x12	18
234	0x09	9
235	0xe9	-23
236	0xf6	-10
237	0xeb	-21
238	0x0b	11
239	0x07	7
240	0x1e	30
241	0x00	0
242	0xe9	-23
243	0x39	57
244	0xfe	-2
245	0xfb	-5
246	0x0a	10
247	0x1a	26
248	0x01	1
249	0x00	0
250	0x29	41
251	0x0a	10
252	0x04	4
253	0x32	50
254	0x06	6
255	0x01	1

model_1/block_4_expand/Conv2D i1 [96, 1, 1, 16]
0	0x25	37
1	0xd2	-46
2	0x7c	124
3	0x7f	127
4	0x59	89
5	0xd3	-45
6	0x04	4
7	0xdc	-36
8	0x77	119
9	0xfb	-5
10	0xaf	-81
11	0xc7	-57
12	0x2c	44
13	0x55	85
14	0xdc	-36
15	0xb5	-75
16	0x15	21
17	0x43	67
18	0xfd	-3
19	0xf8	-8
20	0x6c	108
21	0xf8	-8
22	0x17	23
23	0x15	21
24	0x32	50
25	0x34	52
26	0xe9	-23
27	0x7f	127
28	0xfd	-3
29	0xd8	-40
30	0x57	87
31	0x94	-108
32	0x2b	43
33	0xd2	-46
34	0xf8	-8
35	0xf8	-8
36	0xbc	-68
37	0x18	24
38	0xf5	-11
39	0x45	69
40	0xd0	-48
41	0xa6	-90
42	0x02	2
43	0x3b	59
44	0xef	-17
45	0x81	-127
46	0x51	81
47	0xa7	-89
48	0x7f	127
49	0x6e	110
50	0xf1	-15
51	0x21	33
52	0x82	-126
53	0xfa	-6
54	0xc6	-58
55	0xf8	-8
56	0xf9	-7
57	0x11	17
58	0x64	100
59	0xc4	-60
60	0xcb	-53
61	0x61	97
62	0xd3	-45
63	0xef	-17
64	0xe8	-24
65	0xf6	-10
66	0x1c	28
67	0x07	7
68	0xe0	-32
69	0x25	37
70	0xe8	-24
71	0x26	38
72	0xc9	-55
73	0xd9	-39
74	0xf6	-10
75	0x01	1
76	0x00	0
77	0x81	-127
78	0x17	23
79	0x0a	10
80	0x48	72
81	0xb6	-74
82	0xe0	-32
83	0x0e	14
84	0xfd	-3
85	0x97	-105
86	0xd9	-39
87	0x0a	10
88	0xfb	-5
89	0x0b	11
90	0x81	-127
91	0x0c	12
92	0x14	20
93	0xf5	-11
94	0xf0	-16
95	0x23	35
96	0x86	-122
97	0x84	-124
98	0xf8	-8
99	0x7f	127
100	0xb7	-73
101	0xf4	-12
102	0xca	-54
103	0x3c	60
104	0x8a	-118
105	0xb7	-73
106	0x98	-104
107	0xe1	-31
108	0x34	52
109	0x55	85
110	0xf0	-16
111	0x6a	106
112	0xf4	-12
113	0x0f	15
114	0xc1	-63
115	0x26	38
116	0x24	36
117	0x81	-127
118	0xf0	-16
119	0x26	38
120	0x0d	13
121	0xe6	-26
122	0x0d	13
123	0xfa	-6
124	0x00	0
125	0x10	16
126	0xd7	-41
127	0x0e	14
128	0x18	24
129	0xc9	-55
130	0xed	-19
131	0xf8	-8
132	0x08	8
133	0x20	32
134	0xce	-50
135	0xbc	-68
136	0xf4	-12
137	0x05	5
138	0xc4	-60
139	0x05	5
140	0x81	-127
141	0xfe	-2
142	0x04	4
143	0x12	18
144	0x28	40
145	0xcb	-53
146	0x3a	58
147	0x7f	127
148	0x09	9
149	0x11	17
150	0xec	-20
151	0xab	-85
152	0x6d	109
153	0x8d	-115
154	0x06	6
155	0xf3	-13
156	0xf2	-14
157	0x39	57
158	0x98	-104
159	0x23	35
160	0x97	-105
161	0xa3	-93
162	0xe7	-25
163	0xec	-20
164	0x5f	95
165	0x4e	78
166	0x0f	15
167	0x55	85
168	0x7f	127
169	0xa2	-94
170	0x97	-105
171	0x29	41
172	0x7b	123
173	0xaf	-81
174	0x8f	-113
175	0x57	87
176	0x2d	45
177	0xea	-22
178	0x81	-127
179	0x18	24
180	0x29	41
181	0x0f	15
182	0xeb	-21
183	0x2c	44
184	0xf4	-12
185	0xde	-34
186	0xfe	-2
187	0xf9	-7
188	0xfb	-5
189	0x1b	27
190	0xde	-34
191	0x02	2
192	0x7f	127
193	0xe2	-30
194	0xfa	-6
195	0xf5	-11
196	0x0c	12
197	0xd0	-48
198	0xed	-19
199	0xe3	-29
200	0x37	55
201	0x01	1
202	0x9b	-101
203	0xff	-1
204	0xc7	-57
205	0xde	-34
206	0x0d	13
207	0x2f	47
208	0x34	52
209	0x81	-127
210	0x24	36
211	0xdb	-37
212	0x61	97
213	0x2c	44
214	0xb1	-79
215	0x96	-106
216	0x4b	75
217	0xcb	-53
218	0x21	33
219	0x0d	13
220	0xf8	-8
221	0x1e	30
222	0x17	23
223	0xdc	-36
224	0xbb	-69
225	0x16	22
226	0xa2	-94
227	0xcf	-49
228	0x4c	76
229	0x81	-127
230	0x31	49
231	0xc0	-64
232	0x31	49
233	0x2e	46
234	0xfc	-4
235	0xa0	-96
236	0x13	19
237	0x69	105
238	0xf5	-11
239	0x21	33
240	0x1f	31
241	0xf6	-10
242	0x4c	76
243	0x26	38
244	0x31	49
245	0xdc	-36
246	0xd6	-42
247	0xfb	-5
248	0x1e	30
249	0xb9	-71
250	0xc4	-60
251	0xf0	-16
252	0x81	-127
253	0xda	-38
254	0xe9	-23
255	0x2c	44

model_1/block_4_depthwise_BN/FusedBatchNormV3;model_1/block_4_depthwise/depthwise;model_1/block_6_expand/Conv2D i1 [1, 3, 3, 96]
0	0xef	-17
1	0x06	6
2	0xed	-19
3	0x69	105
4	0xee	-18
5	0x17	23
6	0xc1	-63
7	0xca	-54
8	0x13	19
9	0xfa	-6
10	0x64	100
11	0xf8	-8
12	0x05	5
13	0xf8	-8
14	0xfc	-4
15	0x36	54
16	0x04	4
17	0x10	16
18	0xde	-34
19	0x04	4
20	0x4a	74
21	0x01	1
22	0x21	33
23	0xde	-34
24	0x02	2
25	0x11	17
26	0x2a	42
27	0x30	48
28	0x15	21
29	0x0e	14
30	0x17	23
31	0x31	49
32	0xf7	-9
33	0x1b	27
34	0x09	9
35	0xf1	-15
36	0x04	4
37	0x30	48
38	0xc6	-58
39	0xe6	-26
40	0x15	21
41	0x08	8
42	0x1b	27
43	0x11	17
44	0xac	-84
45	0xc8	-56
46	0x19	25
47	0xfb	-5
48	0xf5	-11
49	0xeb	-21
50	0xf8	-8
51	0xfa	-6
52	0x32	50
53	0x05	5
54	0xf8	-8
55	0x02	2
56	0xfd	-3
57	0xde	-34
58	0x1a	26
59	0xe0	-32
60	0x1c	28
61	0xfd	-3
62	0x7f	127
63	0x1b	27
64	0xf3	-13
65	0xf6	-10
66	0x09	9
67	0xcc	-52
68	0x41	65
69	0x23	35
70	0x02	2
71	0xfa	-6
72	0x50	80
73	0xdf	-33
74	0x44	68
75	0x03	3
76	0x11	17
77	0x81	-127
78	0x1e	30
79	0x41	65
80	0x01	1
81	0x10	16
82	0x7f	127
83	0xf3	-13
84	0x25	37
85	0x1c	28
86	0xe3	-29
87	0xed	-19
88	0x23	35
89	0xfa	-6
90	0xf2	-14
91	0x53	83
92	0x03	3
93	0x13	19
94	0xfd	-3
95	0x0b	11
96	0xcf	-49
97	0x0c	12
98	0xf9	-7
99	0x0c	12
100	0x33	51
101	0xf8	-8
102	0xf5	-11
103	0x81	-127
104	0x28	40
105	0x0d	13
106	0x81	-127
107	0xfc	-4
108	0xf0	-16
109	0xf4	-12
110	0x05	5
111	0x5c	92
112	0x11	17
113	0xe1	-31
114	0xf4	-12
115	0xf1	-15
116	0x4b	75
117	0x9f	-97
118	0x7f	127
119	0x1a	26
120	0xc2	-62
121	0xe1	-31
122	0x97	-105
123	0xef	-17
124	0x1b	27
125	0x25	37
126	0xce	-50
127	0x11	17
128	0x77	119
129	0x0b	11
130	0xf1	-15
131	0xff	-1
132	0xe7	-25
133	0x7f	127
134	0xc2	-62
135	0x81	-127
136	0x0a	10
137	0xed	-19
138	0xe2	-30
139	0x0e	14
140	0x2f	47
141	0x81	-127
142	0x7f	127
143	0xd4	-44
144	0xb3	-77
145	0x33	51
146	0x31	49
147	0x07	7
148	0x27	39
149	0xc0	-64
150	0x20	32
151	0x37	55
152	0x24	36
153	0x2b	43
154	0x9a	-102
155	0x55	85
156	0x7f	127
157	0x22	34
158	0x04	4
159	0xeb	-21
160	0x2b	43
161	0xdb	-37
162	0xa2	-94
163	0xff	-1
164	0x25	37
165	0xe0	-32
166	0xed	-19
167	0x30	48
168	0xce	-50
169	0xd0	-48
170	0x69	105
171	0xfb	-5
172	0xe3	-29
173	0xc6	-58
174	0xe0	-32
175	0x3f	63
176	0xbd	-67
177	0x3f	63
178	0xf0	-16
179	0x08	8
180	0xf5	-11
181	0x2f	47
182	0x37	55
183	0xd7	-41
184	0xe4	-28
185	0x36	54
186	0xf3	-13
187	0x48	72
188	0x81	-127
189	0xe1	-31
190	0x15	21
191	0x81	-127
192	0x00	0
193	0xfc	-4
194	0xe9	-23
195	0xb8	-72
196	0x08	8
197	0x14	20
198	0x25	37
199	0x15	21
200	0xfe	-2
201	0xfd	-3
202	0x03	3
203	0x3f	63
204	0x01	1
205	0xf4	-12
206	0xf5	-11
207	0x07	7
208	0xf1	-15
209	0x10	16
210	0xef	-17
211	0x12	18
212	0x03	3
213	0x18	24
214	0x18	24
215	0xdf	-33
216	0x01	1
217	0xe0	-32
218	0x09	9
219	0x0c	12
220	0xf9	-7
221	0x06	6
222	0x2e	46
223	0xaf	-81
224	0x2c	44
225	0x12	18
226	0x0a	10
227	0xe9	-23
228	0x0c	12
229	0x03	3
230	0xe3	-29
231	0xec	-20
232	0x08	8
233	0x03	3
234	0xf0	-16
235	0x09	9
236	0x16	22
237	0xe0	-32
238	0x15	21
239	0x01	1
240	0x06	6
241	0xf8	-8
242	0x05	5
243	0xfb	-5
244	0x04	4
245	0x05	5
246	0xfb	-5
247	0x08	8
248	0xf8	-8
249	0x2d	45
250	0x08	8
251	0xfe	-2
252	0x0a	10
253	0xed	-19
254	0x03	3
255	0xee	-18

model_1/block_4_project/Conv2D i1 [16, 1, 1, 96]
0	0xff	-1
1	0x12	18
2	0xf8	-8
3	0x17	23
4	0x2d	45
5	0x50	80
6	0xe5	-27
7	0xee	-18
8	0x30	48
9	0x01	1
10	0x03	3
11	0xff	-1
12	0x06	6
13	0x0a	10
14	0x15	21
15	0x44	68
16	0x05	5
17	0xf7	-9
18	0xf8	-8
19	0xfe	-2
20	0x66	102
21	0xce	-50
22	0x0b	11
23	0xf2	-14
24	0xea	-22
25	0xe3	-29
26	0xdc	-36
27	0x9e	-98
28	0xfb	-5
29	0x03	3
30	0x33	51
31	0x2d	45
32	0x7f	127
33	0xfe	-2
34	0x0e	14
35	0x03	3
36	0x08	8
37	0xf2	-14
38	0xef	-17
39	0x0d	13
40	0xda	-38
41	0x0a	10
42	0x1a	26
43	0xe6	-26
44	0x06	6
45	0xe7	-25
46	0xf5	-11
47	0x18	24
48	0xf1	-15
49	0x14	20
50	0x04	4
51	0xf2	-14
52	0xde	-34
53	0xf5	-11
54	0x08	8
55	0x05	5
56	0x23	35
57	0x21	33
58	0xe9	-23
59	0xde	-34
60	0xc3	-61
61	0x1d	29
62	0xfd	-3
63	0xfd	-3
64	0x11	17
65	0x05	5
66	0x39	57
67	0xff	-1
68	0x05	5
69	0x0b	11
70	0x00	0
71	0xe5	-27
72	0xb8	-72
73	0xfc	-4
74	0xfb	-5
75	0x03	3
76	0xf6	-10
77	0xaa	-86
78	0x00	0
79	0xf4	-12
80	0x30	48
81	0xee	-18
82	0xcc	-52
83	0xd9	-39
84	0x21	33
85	0xee	-18
86	0x0a	10
87	0x13	19
88	0x06	6
89	0xfe	-2
90	0x0d	13
91	0xd5	-43
92	0x1b	27
93	0x1a	26
94	0xf4	-12
95	0x7d	125
96	0x43	67
97	0x87	-121
98	0x2a	42
99	0x60	96
100	0xf1	-15
101	0xb2	-78
102	0xfa	-6
103	0xc7	-57
104	0xee	-18
105	0x9c	-100
106	0xf4	-12
107	0x0b	11
108	0x09	9
109	0xb9	-71
110	0xe7	-25
111	0xc0	-64
112	0xa1	-95
113	0xf4	-12
114	0x1b	27
115	0x2d	45
116	0xec	-20
117	0x92	-110
118	0xdc	-36
119	0x23	35
120	0x75	117
121	0xcc	-52
122	0xb3	-77
123	0x0b	11
124	0xe3	-29
125	0x4f	79
126	0xea	-22
127	0x3f	63
128	0x05	5
129	0x1e	30
130	0xcc	-52
131	0x18	24
132	0xef	-17
133	0xf8	-8
134	0x35	53
135	0xe7	-25
136	0x07	7
137	0xb4	-76
138	0x51	81
139	0xd8	-40
140	0xc6	-58
141	0xfd	-3
142	0x36	54
143	0xf9	-7
144	0x2a	42
145	0x0a	10
146	0x0f	15
147	0xc9	-55
148	0x45	69
149	0xac	-84
150	0x29	41
151	0xde	-34
152	0x18	24
153	0x1e	30
154	0xee	-18
155	0x9a	-102
156	0x2f	47
157	0xba	-70
158	0x25	37
159	0xd5	-43
160	0xf7	-9
161	0xa8	-88
162	0x16	22
163	0x21	33
164	0x20	32
165	0x3c	60
166	0xca	-54
167	0x11	17
168	0x81	-127
169	0x25	37
170	0xf7	-9
171	0x4c	76
172	0x28	40
173	0x54	84
174	0x0a	10
175	0xf1	-15
176	0x37	55
177	0xfc	-4
178	0xc3	-61
179	0x26	38
180	0xab	-85
181	0x4f	79
182	0xf5	-11
183	0x45	69
184	0xc0	-64
185	0x1c	28
186	0x1f	31
187	0x16	22
188	0x14	20
189	0xe0	-32
190	0x29	41
191	0xf2	-14
192	0x16	22
193	0x0e	14
194	0x0c	12
195	0xe4	-28
196	0x01	1
197	0xfa	-6
198	0xfc	-4
199	0x22	34
200	0x45	69
201	0xf1	-15
202	0x11	17
203	0x3d	61
204	0xfb	-5
205	0x08	8
206	0x39	57
207	0x0b	11
208	0xf8	-8
209	0xfc	-4
210	0x13	19
211	0xfd	-3
212	0xea	-22
213	0xc1	-63
214	0x08	8
215	0xd1	-47
216	0xf2	-14
217	0xf4	-12
218	0xe4	-28
219	0x22	34
220	0xef	-17
221	0x0f	15
222	0x6c	108
223	0xc2	-62
224	0x12	18
225	0xc1	-63
226	0xe1	-31
227	0x3d	61
228	0x17	23
229	0x7f	127
230	0xd6	-42
231	0xe6	-26
232	0x02	2
233	0xea	-22
234	0xff	-1
235	0x1d	29
236	0xcf	-49
237	0xdc	-36
238	0xbf	-65
239	0x18	24
240	0x18	24
241	0x1d	29
242	0xea	-22
243	0xe7	-25
244	0x11	17
245	0xf6	-10
246	0x04	4
247	0xda	-38
248	0xec	-20
249	0x04	4
250	0x01	1
251	0x1f	31
252	0x0a	10
253	0x0f	15
254	0x4b	75
255	0x4e	78

model_1/block_5_expand/Conv2D i1 [96, 1, 1, 16]
0	0x17	23
1	0x30	48
2	0xd2	-46
3	0x37	55
4	0x22	34
5	0x1e	30
6	0x03	3
7	0xef	-17
8	0x11	17
9	0x24	36
10	0xb9	-71
11	0x57	87
12	0x0a	10
13	0x81	-127
14	0x22	34
15	0xa4	-92
16	0x17	23
17	0x3c	60
18	0xf8	-8
19	0xe3	-29
20	0x1a	26
21	0xe4	-28
22	0x7f	127
23	0x83	-125
24	0x00	0
25	0x5a	90
26	0xf6	-10
27	0xfa	-6
28	0x0c	12
29	0xd8	-40
30	0x23	35
31	0x03	3
32	0x91	-111
33	0x38	56
34	0xe7	-25
35	0xf0	-16
36	0xef	-17
37	0xf2	-14
38	0x30	48
39	0x6d	109
40	0xf7	-9
41	0x3b	59
42	0x7f	127
43	0xf8	-8
44	0xa7	-89
45	0x0a	10
46	0x35	53
47	0xe0	-32
48	0xac	-84
49	0x47	71
50	0x2f	47
51	0x4f	79
52	0xdc	-36
53	0x2d	45
54	0x4a	74
55	0x7f	127
56	0x18	24
57	0x39	57
58	0x97	-105
59	0x1a	26
60	0x1b	27
61	0xc2	-62
62	0xb7	-73
63	0xc4	-60
64	0x02	2
65	0x06	6
66	0x20	32
67	0x43	67
68	0xe2	-30
69	0x48	72
70	0x0a	10
71	0x2b	43
72	0x09	9
73	0xe1	-31
74	0x17	23
75	0x0a	10
76	0x0d	13
77	0x05	5
78	0x81	-127
79	0xda	-38
80	0xfb	-5
81	0xe3	-29
82	0x44	68
83	0xfa	-6
84	0x16	22
85	0xd5	-43
86	0xfc	-4
87	0x23	35
88	0xc6	-58
89	0x4e	78
90	0xde	-34
91	0x81	-127
92	0xf2	-14
93	0x1f	31
94	0xc1	-63
95	0xe0	-32
96	0xff	-1
97	0x0f	15
98	0x17	23
99	0xf4	-12
100	0x23	35
101	0x2c	44
102	0xc0	-64
103	0xc4	-60
104	0xf1	-15
105	0xf9	-7
106	0x36	54
107	0xfd	-3
108	0x7f	127
109	0xea	-22
110	0xf8	-8
111	0xdb	-37
112	0x1a	26
113	0x0b	11
114	0x7f	127
115	0xf9	-7
116	0xe2	-30
117	0xdc	-36
118	0x02	2
119	0x00	0
120	0xbf	-65
121	0x1f	31
122	0xaf	-81
123	0xc7	-57
124	0x0d	13
125	0x02	2
126	0x1e	30
127	0xfb	-5
128	0x04	4
129	0x12	18
130	0x44	68
131	0x36	54
132	0xce	-50
133	0x66	102
134	0x0b	11
135	0x35	53
136	0x20	32
137	0x12	18
138	0xf6	-10
139	0xa1	-95
140	0xe9	-23
141	0x05	5
142	0x81	-127
143	0xc5	-59
144	0x0c	12
145	0x82	-126
146	0x4e	78
147	0x4a	74
148	0x0d	13
149	0xe3	-29
150	0x00	0
151	0x1c	28
152	0x7f	127
153	0x05	5
154	0x63	99
155	0x1c	28
156	0xe6	-26
157	0x0a	10
158	0xab	-85
159	0xd6	-42
160	0xfb	-5
161	0x9d	-99
162	0x05	5
163	0xde	-34
164	0xaa	-86
165	0x10	16
166	0xfe	-2
167	0x35	53
168	0x7f	127
169	0x77	119
170	0x41	65
171	0xe8	-24
172	0xeb	-21
173	0x48	72
174	0x6b	107
175	0x1a	26
176	0x1b	27
177	0xe3	-29
178	0x09	9
179	0xa1	-95
180	0x06	6
181	0xe7	-25
182	0x87	-121
183	0x81	-127
184	0xcc	-52
185	0x28	40
186	0xec	-20
187	0xd3	-45
188	0x29	41
189	0xe2	-30
190	0x22	34
191	0xcb	-53
192	0xe8	-24
193	0x12	18
194	0x0e	14
195	0xda	-38
196	0xdd	-35
197	0xe4	-28
198	0x84	-124
199	0xd9	-39
200	0xc6	-58
201	0xca	-54
202	0xe8	-24
203	0x09	9
204	0x20	32
205	0x7f	127
206	0x5e	94
207	0x2f	47
208	0xdb	-37
209	0x81	-127
210	0xaf	-81
211	0x1f	31
212	0x0b	11
213	0xc4	-60
214	0x15	21
215	0xdd	-35
216	0x47	71
217	0x07	7
218	0xfb	-5
219	0xf5	-11
220	0x17	23
221	0x17	23
222	0x6b	107
223	0x1a	26
224	0xf0	-16
225	0xce	-50
226	0x38	56
227	0x25	37
228	0x05	5
229	0x23	35
230	0xfc	-4
231	0x7f	127
232	0x10	16
233	0x34	52
234	0x14	20
235	0xce	-50
236	0x02	2
237	0x24	36
238	0xc5	-59
239	0x78	120
240	0x13	19
241	0xde	-34
242	0xfb	-5
243	0x49	73
244	0x04	4
245	0xf3	-13
246	0x50	80
247	0x00	0
248	0xfd	-3
249	0x81	-127
250	0x09	9
251	0xe6	-26
252	0x05	5
253	0xeb	-21
254	0x02	2
255	0xd6	-42

model_1/block_5_depthwise_BN/FusedBatchNormV3;model_1/block_5_depthwise/depthwise;model_1/block_6_expand/Conv2D i1 [1, 3, 3, 96]
0	0xd0	-48
1	0xb8	-72
2	0xf5	-11
3	0x7f	127
4	0x15	21
5	0x49	73
6	0x4e	78
7	0xc6	-58
8	0xf0	-16
9	0xef	-17
10	0xf0	-16
11	0xfc	-4
12	0xe3	-29
13	0x01	1
14	0x24	36
15	0x01	1
16	0xf6	-10
17	0xd5	-43
18	0x1b	27
19	0x17	23
20	0x13	19
21	0x81	-127
22	0x7f	127
23	0x07	7
24	0xa9	-87
25	0x08	8
26	0x31	49
27	0xe4	-28
28	0x81	-127
29	0x81	-127
30	0x26	38
31	0x18	24
32	0x0b	11
33	0x1a	26
34	0x3d	61
35	0xed	-19
36	0xe3	-29
37	0xf5	-11
38	0x20	32
39	0xff	-1
40	0xf4	-12
41	0x1c	28
42	0x96	-106
43	0x44	68
44	0x19	25
45	0xbc	-68
46	0x25	37
47	0x2e	46
48	0xee	-18
49	0x31	49
50	0xe8	-24
51	0x14	20
52	0x04	4
53	0xf9	-7
54	0x11	17
55	0x31	49
56	0xa8	-88
57	0xcf	-49
58	0xc1	-63
59	0xed	-19
60	0xf6	-10
61	0x01	1
62	0x0b	11
63	0x25	37
64	0x43	67
65	0xe7	-25
66	0x4c	76
67	0x0d	13
68	0xf7	-9
69	0x11	17
70	0x13	19
71	0x7f	127
72	0x18	24
73	0x16	22
74	0x1c	28
75	0xff	-1
76	0xf6	-10
77	0x12	18
78	0x7f	127
79	0xfa	-6
80	0xf2	-14
81	0x10	16
82	0xe4	-28
83	0x16	22
84	0x7b	123
85	0x13	19
86	0xb1	-79
87	0xef	-17
88	0x01	1
89	0xe0	-32
90	0xf0	-16
91	0xd8	-40
92	0x02	2
93	0xe8	-24
94	0xf0	-16
95	0x19	25
96	0x7f	127
97	0x81	-127
98	0x47	71
99	0x69	105
100	0xd5	-43
101	0x7f	127
102	0x29	41
103	0x8c	-116
104	0x44	68
105	0x05	5
106	0xee	-18
107	0x7f	127
108	0x7f	127
109	0x9f	-97
110	0xf3	-13
111	0x11	17
112	0x0a	10
113	0x7f	127
114	0x7f	127
115	0x92	-110
116	0x7f	127
117	0xb5	-75
118	0x50	80
119	0x46	70
120	0x81	-127
121	0x8c	-116
122	0xbd	-67
123	0xde	-34
124	0xc9	-55
125	0x30	48
126	0xc4	-60
127	0xec	-20
128	0xa7	-89
129	0x36	54
130	0x81	-127
131	0xaa	-86
132	0xd6	-42
133	0xf1	-15
134	0xcd	-51
135	0x4a	74
136	0x00	0
137	0x7f	127
138	0x7f	127
139	0x4d	77
140	0xce	-50
141	0x90	-112
142	0x91	-111
143	0xce	-50
144	0xf1	-15
145	0x81	-127
146	0x2b	43
147	0x55	85
148	0x43	67
149	0xe0	-32
150	0x2d	45
151	0x52	82
152	0xd3	-45
153	0x2b	43
154	0xaf	-81
155	0x90	-112
156	0xd5	-43
157	0xd8	-40
158	0xc4	-60
159	0x42	66
160	0x48	72
161	0xc4	-60
162	0x1c	28
163	0x1e	30
164	0xb0	-80
165	0x21	33
166	0xee	-18
167	0x5a	90
168	0x75	117
169	0x7f	127
170	0x0f	15
171	0x13	19
172	0x02	2
173	0x3b	59
174	0xe0	-32
175	0x34	52
176	0x41	65
177	0x7f	127
178	0x7f	127
179	0xea	-22
180	0xf8	-8
181	0x4b	75
182	0x8c	-116
183	0x7f	127
184	0x8b	-117
185	0x9c	-100
186	0x04	4
187	0x81	-127
188	0xa6	-90
189	0x81	-127
190	0xd9	-39
191	0x68	104
192	0xb3	-77
193	0xf2	-14
194	0x1a	26
195	0xae	-82
196	0x0f	15
197	0xe6	-26
198	0x45	69
199	0xf9	-7
200	0x4e	78
201	0xde	-34
202	0xe3	-29
203	0x12	18
204	0xed	-19
205	0xfc	-4
206	0xf7	-9
207	0xf6	-10
208	0xf7	-9
209	0xf1	-15
210	0x08	8
211	0xfd	-3
212	0xea	-22
213	0x9a	-102
214	0x1d	29
215	0x01	1
216	0x85	-123
217	0x5f	95
218	0x06	6
219	0xca	-54
220	0x78	120
221	0x33	51
222	0xf1	-15
223	0x0a	10
224	0x00	0
225	0x0e	14
226	0x0d	13
227	0xe2	-30
228	0xf6	-10
229	0x21	33
230	0x16	22
231	0x15	21
232	0x19	25
233	0x0d	13
234	0x8b	-117
235	0x3e	62
236	0x12	18
237	0xee	-18
238	0x24	36
239	0x0e	14
240	0xf2	-14
241	0x09	9
242	0xf0	-16
243	0x05	5
244	0xf7	-9
245	0x01	1
246	0xfd	-3
247	0x14	20
248	0xbf	-65
249	0x07	7
250	0xdd	-35
251	0x33	51
252	0x03	3
253	0x29	41
254	0x21	33
255	0x00	0
